model/keypoint_classifier/keypoint_classifier.tflite (tflite, 6644 bytes, 6 tensors)

arith.constant f4 [6, 10]
00000000: 573e f03e db26 3f3f ae1e a6be a0dc 0f3f
00000010: 3a38 27be 4010 443f c80b 36bf 7fae 06bf
00000020: 7c5a 293e b38c 1cbf b01a d93e 0b8d 163f
00000030: 5913 3fbf decd 3fbf 553a 22bf c33e d8be
00000040: 1a56 c93e 34b9 5d3f d1ac 5f3f 852d 603f
00000050: f81d 70bd c210 acbe d488 c6be 948b 39bf
00000060: e9eb 933f 18d5 373e 6e22 6d3f 24ba 983d
00000070: d430 593f 69a8 1ebf 1c19 ecbf fe1c afbf
00000080: a3b6 543f 97f1 553f 2256 febe 5691 463e
00000090: 5d22 ffbe af04 0a3c 8fcb ef3c 452a 963e
000000a0: 2327 1bbf 6253 22be d9b0 65bf b5cd 673e
000000b0: 5931 0d3f 6189 4ebf d5fd 993f a25b 23bf
000000c0: ed72 f3bf 1ef6 85bf 5a73 f03e e3e0 c6bf
000000d0: 5cfc 3fbe 2618 6c3e 7fff c6be f7f2 0bbf
000000e0: 7a29 6abf 11fb 44be 37a0 d0be 7813 c33e
0.46922562 0.74668664 -0.32445282 0.5619602 -0.16330042 0.76587296 -0.71111727 -0.5261001
0.16538423 -0.6115219 0.42403173 0.58808964 -0.746389 -0.74923503 -0.6337026 -0.42235383
0.39323503 0.8661072 0.8737307 0.8756946 -0.05862233 -0.33606535 -0.38776267 -0.72478604
1.1556369 0.17952383 0.9263066 0.074573785 0.8484013 -0.61975724 -1.8445163 -1.3680723
0.8309118 0.8357176 -0.4967509 0.19391379 -0.49830905 0.008423968 0.029271869 0.29329124
-0.6060659 -0.1585212 -0.89722973 0.22637065 0.55153424 -0.80678374 1.2030588 -0.63811696
-1.9019448 -1.0465734 0.46963006 -1.553738 -0.18748611 0.23056087 -0.38866803 -0.5466761
-0.9146954 -0.19236399 -0.40747234 0.3810079

arith.constant1 f4 [10, 20]
00000000: e9dd c93e 2204 88bd cfe5 d13f 6cf3 003e
00000010: 281a 983d 5774 893e b288 ae3f 9b22 5c3f
00000020: c750 d03e e78f 773f 4474 2a3f 898c 223f
00000030: 9d02 1e3f 7588 483e d74d ebbe 4d13 70bc
00000040: 5606 003f fce9 373e 3ab8 bc3e 8e15 7a3f
00000050: e63d ea3e 9507 7f3f dfcb 5f3b fea3 df3d
00000060: cb0b d33d 1e91 623f 9c94 183f d83e a33f
00000070: b532 143f 5883 523f 1271 423f 752a 6c3e
00000080: 9e65 943f 579e 883d 8049 d83e 6de9 de3c
00000090: 13e6 253f 17e8 06bd 636e 043f 2327 d03e
000000a0: 8d36 4abd c7ac 473e b991 8cbe 58c9 643e
000000b0: 2d03 7d3e 5a9d 26bf fc9b d13e d7d0 07bf
000000c0: 18f9 f93c 9659 e53e f3da babd 31b4 213e
000000d0: 2a3c be3e c9d3 873e 887b 313e bd87 d8bf
000000e0: 440f cabe 2448 7d3e e3f8 9abb 1b88 9fbd
000000f0: 0ff2 05bf f54b e33e eebd ad3e 689f 383f
00000100: a582 203f 22ef fa3e cd5c a43e 8d83 573e
00000110: d8eb 9abd 521a cabe 89d8 10bf 5d31 7ebe
00000120: dfc9 d33e 59d0 143f 59b9 bf3e 3582 623f
00000130: f95e 6f3e 80f0 ad3e 0c08 e5be fab5 a83d
00000140: ba37 383e cb10 8dbe 6db7 e2be 91a1 b9bf
00000150: 7bfa e43d 4a4a 203f 2d7e 07bf 696b 1cbf
00000160: 743e b13e 861f 643e 6437 81be dfa0 fabb
00000170: 4829 643e 033c b3bf fe1b be3d f297 83bf
00000180: 9010 2b3f c3d9 a4bf 000d 98bc 9f2f 343d
00000190: 9897 6bbe 3dac 063f cf68 cdbd bcc0 b2be
000001a0: 7555 9f3e 69bd 3c3e a9a7 1a3f 427b a03e
000001b0: ca50 f83e 4249 723e 23fb b0bd 9a23 493f
000001c0: 03d5 aa3e cfec 023e 7f37 b23e fbf2 58bd
000001d0: 45f6 893e 3044 d63e e36c 753d 1b35 f73e
000001e0: 011f 1a3f 6e5a d5be b062 f2be aadc f9bd
000001f0: 4e06 813e 750e 243f 1a3d 0fbf ef24 e0bd
00000200: 04cc 593e 75a5 2bbe e16a ba3e 99bc 6a3e
00000210: 691b 683d 51fd 1abf 9c06 973d a137 1fbe
00000220: 6dbc 323f ed5b 59bf 24e7 bf3e e788 d43e
00000230: 4647 b9be b36f 32bd c1d8 0a3f 0e0a a9be
00000240: 4d90 26be 4a76 a6be 4da8 86be 7337 c4bc
00000250: 7876 ca3e e911 bf3e f96c 16be 58b9 62be
00000260: a8ae f23c 2ae4 97be 06fd 243f e4cd 8cbd
00000270: ac38 13be addf 02be 5693 703e 955e 38bd
00000280: 2913 6c3f 386d edbe 4682 533e 5b23 98be
00000290: 1a98 423f 4629 db3a 3f36 d73d b6b8 b83e
000002a0: bf66 aa3e ffb1 6e3e 0663 4e3e b24f 123f
000002b0: fbfb 5a3f 0d76 e2bd c8e1 4c3f c5aa a0bc
000002c0: c4dd 9abd 86c4 03bf 017e 8c3f 6d52 393f
000002d0: e761 5c3f f1ce b03d 17e4 fc3e 76d3 233d
000002e0: eeaa c73e f53d c2be db93 b0bd 35a9 85bd
000002f0: a1d7 663d 24db 30be 6b7f 373f 7260 863d
00000300: 7461 53bc e764 e03e ddd0 9f3d 1c91 063f
00000310: 22f2 22bf d245 d13e 48d3 d2be e942 f13e
0.39427117 -0.06641413 1.6398257 0.12592858 0.07426864 0.26846573 1.3635466 0.85990304
0.40686628 0.9670395 0.6658366 0.6349569 0.6172274 0.19583304 -0.45957825 -0.014653039
0.5000967 0.17960352 0.36859304 0.9768914 0.4575035 0.99620944 0.0034148616 0.10919951
0.10304984 0.8850268 0.5960176 1.2753553 0.5788987 0.82231665 0.7595378 0.23063071
1.1593511 0.06670826 0.42243576 0.027210915 0.6480419 -0.032936182 0.51730937 0.4065486
-0.04936843 0.19499503 -0.27454928 0.22342432 0.24708243 -0.6508385 0.4093932 -0.5305304
0.030514285 0.4479491 -0.091237925 0.15791394 0.37155277 0.26528767 0.1733228 -1.6916424
-0.39464772 0.2473455 -0.0047293766 -0.07789632 -0.5232248 0.44393888 0.33933967 0.72118235
0.6269935 0.4901057 0.3210205 0.21046276 -0.07564515 -0.39473206 -0.56580406 -0.24823518
0.41364953 0.58130413 0.37446097 0.8847993 0.23376073 0.3397255 -0.44732702 0.08237834
0.17990008 -0.27551875 -0.44280568 -1.4502431 0.11180588 0.62613356 -0.52926904 -0.61101395
0.3461796 0.2227765 -0.25237572 -0.007648572 0.22281373 -1.4002689 0.09282683 -1.0280745
0.6682215 -1.2878956 -0.018560886 0.043990728 -0.23007047 0.52606565 -0.10029756 -0.3491267
0.31119886 0.18431629 0.6041208 0.31344038 0.48499137 0.23660758 -0.086416505 0.7856995
0.3336564 0.12785648 0.34807965 -0.0529661 0.269457 0.41848898 0.059918296 0.48282704
0.6020356 -0.41670555 -0.47340918 -0.122002915 0.25200123 0.6408456 -0.5595261 -0.109445445
0.21269232 -0.16762336 0.36409667 0.22923507 0.056666765 -0.6054278 0.073743075 -0.15548564
0.69818765 -0.8490589 0.37481034 0.41510698 -0.3618719 -0.043563556 0.5423699 -0.33015484
-0.16265984 -0.32512122 -0.26300278 -0.023952221 0.3954351 0.37318352 -0.14690007 -0.22141016
0.029624298 -0.29666263 0.64448583 -0.06875208 -0.14377087 -0.12780638 0.23493704 -0.045012075
0.92216736 -0.4637239 0.20655164 -0.29714474 0.7601334 0.0016720674 0.105083935 0.36078423
0.33281514 0.23310088 0.20154962 0.57152855 0.8554074 -0.11057673 0.80032015 -0.01961268
-0.0756183 -0.51471746 1.0975953 0.72391397 0.8608689 0.08633221 0.4939277 0.039996587
0.38997597 -0.37937894 -0.08621951 -0.06526414 0.056357983 -0.17271096 0.716788 0.06561364
-0.012901653 0.43826982 0.078035094 0.5256517 -0.63650715 0.4087358 -0.4117682 0.4712136

arith.constant2 f4 [6]
00000000: 55b8 89be b0fe e3be 77cd 6ebd 4ffb a2be
00000010: d03a 673f b26c 0a3f
-0.26898447 -0.4453025 -0.058301415 -0.31832358 0.90324116 0.54072106

sequential_1/dense_1_2/BiasAdd/ReadVariableOp f4 [10]
00000000: 5d08 843e 0301 84be d13a a63e 8fee 763e
00000010: 8bea 3d3f 6812 2d3e 44c0 4f3f dc04 bebe
00000020: 8155 ae3e b866 7cbd
0.2578763 -0.25782022 0.32466748 0.2411444 0.7418601 0.16901553 0.8115275 -0.37113082
0.3404961 -0.061621398

sequential_1/dense_1/BiasAdd/ReadVariableOp f4 [20]
00000000: 195f 27bf e303 c9be ea2b 5fbf 0efe e5be
00000010: 5a92 abbe 43ce 76bd 0d20 02bf bb33 31bf
00000020: 39e3 b4bd b39e d9be 0fbe 7bbf ae22 7f3e
00000030: 6e83 cebd d53d bebe d94e 2abf e4a3 34bf
00000040: 70b8 3dbe 1e65 d6be b114 27bf 041b ffbe
-0.6537948 -0.39260778 -0.8717638 -0.4492039 -0.33510095 -0.0602553 -0.50830156 -0.6921956
-0.08832402 -0.4250389 -0.9833688 0.24915573 -0.10083662 -0.3715655 -0.6652656 -0.7056258
-0.18527389 -0.4187402 -0.6526595 -0.498253

sequential_1/dense_1/MatMul f4 [20, 42]
00000000: 546a d7bd 08e5 1f3d 98e3 8bbe c56f 293e
00000010: 7e56 77be 42e8 35be 259c 15be cd54 93bd
00000020: bdc2 d7bd 73c0 8abe adde e8be 48b9 2fbd
00000030: 22e6 ee3c 3a3f 47bd 9cca 733e 56af 073d
00000040: 84aa 863e e824 f33b 0947 2fbf f92c 2abe
00000050: d212 cd3d 4413 cb3c 1580 9f3e efe3 3d3e
00000060: 4061 643e 23dd 2e3e 09db 30bf 7831 9abe
00000070: 5983 8bbd 073b 9fbd 4d66 363e 6307 cc3d
00000080: f6b6 323e bc0a e33d e3a4 2fbf 995d 07bf
00000090: 26ab 81be 6d62 28be 2ceb b93b 2ad7 f53c
000000a0: cb2c 8f3d 8f55 603d 468f cabd 80c2 e63b
000000b0: cbbe 9dbd 8990 8a3e 15ff d5bd ec22 88bd
000000c0: a42e a9be a172 d1bd 4401 53bf aa06 dcbd
000000d0: 5f42 733d d16a 813e 8f7f 983b 41d2 133e
000000e0: 211c 9f3c 4e12 36bd 13b3 353d f24a 27be
000000f0: fe65 f9bc c58e 623e 79d6 d23a b757 873d
00000100: ab66 9f3e a74a 97bd 95d0 953e 9eca fabd
00000110: 1e7d 28be 548f 863e 3b9b 7dbd 2e3c 7d3d
00000120: 8759 d13e dfdd 233d c9b0 113f 6a99 3bbe
00000130: 51c8 6dbe 369c b83e 6bbc f13a c9e5 ec3d
00000140: 8e3c a03e 93ab 083d b874 f33e c849 d63d
00000150: 59a9 99be f0f1 9b3c b158 9a3e 17cb 26bf
00000160: 46cc 733e 5090 83be 0e6f bc3e ae16 e4be
00000170: d880 a93e 86c1 77be e5ee a4bd 2758 f4bd
00000180: dc03 23bd 7564 ffbb 627f c8bd 0e93 c63d
00000190: 117b e7bd 6b34 d93d ce51 f83d 5e67 c3bd
000001a0: 590e 5a3d d0d4 00bd 2f12 4a3e 3c0e b13c
000001b0: a1d3 993e 5ebe 6a3d dab4 543e 1593 bcbc
000001c0: ada8 debc edca edbd 5d71 1abe c4ae fcbd
000001d0: 4d2d e6bc 6f3b a5be e73f b33e d247 a0bd
000001e0: 6ea4 553d 0daf 6abd 09fd 2abe 8d99 63bd
000001f0: 0913 86be 7802 13be 42cd c5bd 40c0 453c
00000200: ee2e 123e b305 2c3f 3135 cc3d 37ff 873e
00000210: 70b8 2f3e 4a3f 973e bce3 823e 0c79 943e
00000220: a7d7 b93c 8405 9d3c 8443 52bd 2ed6 fb3b
00000230: 8285 c8bc db31 693d f188 11bb 3b35 213d
00000240: ec42 fe3c 15b6 3f3d 5159 8fbb dc0c 8aba
00000250: d0e4 29be c0e4 abbe 1964 babe 49dc 4cbf
00000260: 702c 353e 9df8 0d3d a5aa 99bc 7b90 aa3c
00000270: d954 7bbe 8dd7 38be c4ea ddbe 8732 16bf
00000280: 5d5d 403e 0b75 d43d 97dd 8b3c a351 8a3d
00000290: ef27 35bd 7443 1fbe 8fc7 11bd 403e c3be
000002a0: ee79 29be 64ce e03d bd10 823d 88a8 623f
000002b0: b581 ecbe 1f17 283f 4c99 34be 51c4 9e3e
000002c0: ddce debe f9a3 babe 6e3b e4be a564 873e
000002d0: 228b 91be 98a2 413e ebef 31be 32c7 fc3d
000002e0: a8e8 ffbe fc54 e23c ae49 a3be 8930 73bc
000002f0: 84c9 88be 481e 3bbd 6523 30bf b37e e13d
00000300: 81e8 a4bf 2bc0 433e 4033 ec3b de61 1dbe
00000310: 33a5 893c f490 0abe e86c 26be 3b5b aebd
00000320: 66c3 06bf 49d2 863c 8f58 cb3d c98c a9be
00000330: 3c2e 7d3f 3d24 8cbd c86d 4c3f 296d cfbc
00000340: ce3f f43d b758 66bd b02c 953e a87c 56be
00000350: 0959 753c 9802 443f f138 053c b7af 0b3f
00000360: d62b 8c3d bb5c d03e 7287 ab3d d2f7 af3e
00000370: 2c40 19bd 9866 d33c cdeb 76bc a786 de3b
00000380: 9659 6b3d 9d6c 31be c18b 993d 0880 d6bf
00000390: b5f3 4abc 45e7 c43d 5eba 27bd 5154 983d
000003a0: 02ba e7bd f80f 223d 59b0 aabd b525 a9bc
000003b0: a05f 013e 5b8a fc3d af55 81bd 51d9 e63d
000003c0: 81dd e0bd 86cf a13d 0704 8ebd 78f4 603d
000003d0: 0502 833d fd68 5b3e 9228 0cbd a3b0 243e
000003e0: 12cc 5c3d 4134 ff3d 267a 8d3d c4e8 953d
000003f0: 08cc b23d b0e6 70bd 19ad 29be d5cc 703c
-0.10518327 0.03903678 -0.27322078 0.16546543 -0.24154088 -0.1776438 -0.14610346 -0.07193909
-0.1053519 -0.27099952 -0.45482388 -0.042901307 0.02916247 -0.048644282 0.23807758 0.033126198
0.26301968 0.007420171 -0.68467766 -0.16618718 0.10013355 0.02478946 0.31152406 0.18543981
0.22302723 0.17076544 -0.6908422 -0.30115867 -0.06812162 -0.077749304 0.17812462 0.099623464
0.17452607 0.11086032 -0.6861097 -0.52877194 -0.25325888 -0.16443796 0.0056737866 0.030009825
0.069909655 0.054769095 -0.098906085 0.007042229 -0.077024065 0.27063397 -0.10449044 -0.06647286
-0.33043396 -0.10226942 -0.82423806 -0.107434586 0.05938947 0.25276807 0.004653878 0.14435674
0.019422593 -0.04445105 0.04436023 -0.16337183 -0.030444141 0.22124775 0.0016085646 0.06608527
0.31133017 -0.07387286 0.29260698 -0.122456774 -0.16453978 0.26281226 -0.061915617 0.06182497
0.40888616 0.040006515 0.5691038 -0.18320242 -0.23220946 0.3605668 0.0018442994 0.115672655
0.312962 0.03336675 0.47549987 0.104632914 -0.30012015 0.019036263 0.3014579 -0.6515364
0.23808393 -0.2569604 0.36803478 -0.44548553 0.33106112 -0.24194917 -0.08053378 -0.11930876
-0.039798602 -0.007793958 -0.09789921 0.09696017 -0.1130277 0.10605701 0.12124978 -0.095412
0.05323634 -0.031452954 0.19733499 0.021613233 0.30044273 0.057310455 0.20772114 -0.023019353
-0.02718004 -0.11610971 -0.15082307 -0.123380214 -0.028097773 -0.32271907 0.3500969 -0.07826199
0.052158765 -0.057295848 -0.16698088 -0.05556636 -0.26186398 -0.1435641 -0.096582904 0.012069762
0.14275715 0.67196196 0.09971083 0.265619 0.17160201 0.29540473 0.25564373 0.289986
0.022685839 0.01916767 -0.05133392 0.0076854443 -0.024477724 0.05693231 -0.0022206868 0.039357405
0.03103777 0.046804506 -0.004374661 -0.0010532397 -0.16591191 -0.3357296 -0.36404493 -0.8002363
0.17692733 0.034660924 -0.018758127 0.020820847 -0.24544086 -0.18050976 -0.43343174 -0.5867085
0.18785615 0.10373887 0.017073436 0.06753852 -0.044227537 -0.15553075 -0.035590705 -0.3813343
-0.16550419 0.10976866 0.06350849 0.8853841 -0.4619271 0.6566028 -0.17636603 0.31009153
-0.435172 -0.36453226 -0.4457659 0.26443973 -0.28426462 0.18909681 -0.17376678 0.12342681
-0.4998219 0.027628414 -0.3189215 -0.014843115 -0.26716244 -0.045683175 -0.6880401 0.11010494
-1.2883455 0.19116275 0.007208258 -0.15369365 0.016802406 -0.13531858 -0.16252482 -0.085134946
-0.52641904 0.016457694 0.099290006 -0.33115223 0.98898673 -0.068428494 0.7985501 -0.025320606
0.11926232 -0.05623695 0.29135656 -0.2094599 0.014974841 0.7656646 0.008131252 0.54564995
0.068442985 0.40695748 0.083754435 0.3436876 -0.037414715 0.025805756 -0.015070868 0.006790954
0.057458483 -0.17326589 0.07497359 -1.6757822 -0.012387206 0.09614424 -0.040949218 0.07437957
-0.11314775 0.03956601 -0.08334417 -0.020647863 0.12634134 0.12331077 -0.06315171 0.112719186
-0.109797485 0.0790091 -0.06934362 0.054920644 0.063968696 0.21426769 -0.03421838 0.16083007
0.053905554 0.124611385 0.069080636 0.07319787 0.08730322 -0.05881375 -0.16569938 0.014697273
